graphsage_fraud_model.pt (torch, 11284 bytes, 6 tensors)

conv1.lin_l.weight f4 [32, 30]
000000 fd 2f 32 be 62 95 24 bd cb 1b c6 bd 98 ea af bd
       -0.17401119 -0.040181525 -0.0967327 -0.08589667
000010 14 c1 06 3b 12 fb 95 3d 32 8c 68 3e 54 db 4d bd
       0.002056186 0.073232785 0.2270973 -0.050257996
000020 d3 34 33 be c2 96 c8 3d 14 58 59 3d c2 4c 96 3d
       -0.1750062 0.0979438 0.053062513 0.07338859
000030 00 e8 06 bd 64 83 38 be 70 fa a9 bd d2 a5 18 bd
       -0.032936096 -0.18018872 -0.0829972 -0.037267514
000040 30 bc 70 be b9 22 3d be 65 e7 e8 3d ee 3d bc 3c
       -0.23509288 -0.18470277 0.1137226 0.02297875
000050 17 4e ef 3d 70 74 7c 3d 6e 5e bb 3d 04 2d 6f be
       0.11684816 0.06163448 0.091488704 -0.23357016
000060 b0 f7 8d 3d d2 77 e3 3d 8a 7d ea 3d 7b f8 08 bd
       0.06932008 0.11106838 0.11449726 -0.033440094
000070 5e 36 39 bb 17 e0 75 be 8b fb 97 bd 79 8f 7e 3d
       -0.0028261165 -0.24011265 -0.07421025 0.062148545
000080 04 27 d1 3b f3 04 46 bd 58 43 0a be 1e 5e 9e 3b
       0.006382825 -0.048344564 -0.13502252 0.004832997
000090 3c 39 88 bd 87 ac 69 be ea 65 eb 3d 73 01 40 be
       -0.066515416 -0.2281972 0.11494048 -0.18750553
0000a0 fa e8 7b 3e 58 0a e5 bd 80 96 c1 bc 29 6d 11 be
       0.24600592 -0.111836135 -0.023631334 -0.14201798
0000b0 77 d3 03 be b7 5b 39 be 0f d5 9d bd eb 08 40 be
       -0.12873636 -0.18101393 -0.07706653 -0.18753402
0000c0 57 ad 05 3e 51 72 4d 3d 1e c6 4a 3d 97 6e 81 3e
       0.13054405 0.05015785 0.049505346 0.25279686
0000d0 e8 3f ba 3c f6 fe b1 bd 7e 7f 1c bd b3 9f 69 bc
       0.022735551 -0.08691208 -0.038207524 -0.014259267
0000e0 74 1e 92 bc 53 3c 16 be f7 10 bc 3c 54 0b 5d 3e
       -0.017836787 -0.1467145 0.022957308 0.21586353
0000f0 dc 47 72 be bd 4a 82 be d4 9c 7a 3c f1 f1 b1 3d
       -0.23660225 -0.25447646 0.01529618 0.08688725
000100 82 64 e7 3c b5 ca 89 be ac d8 e8 3c 82 a0 23 be
       0.028246168 -0.26912466 0.02842363 -0.15979198
000110 98 38 a8 bd e1 76 7e 3e 0d 21 83 bd 73 b2 49 3e
       -0.082139194 0.24850036 -0.06402788 0.19696979
000120 b8 0e 88 be e2 f3 d7 3d fe 55 f4 3b ef 35 04 be
       -0.2657373 0.10544564 0.00745654 -0.12911199
000130 2f 19 ec bb 77 c7 e0 3d d2 38 30 3b f7 02 2a 3b
       -0.0072051506 0.10975545 0.0026889336 0.0025941709
000140 a2 b7 8b bd b5 42 01 be 36 22 b0 be ee 41 98 be
       -0.068221346 -0.12623103 -0.344011 -0.297378
000150 bf f8 26 3e 70 86 6b 3e a8 2e f3 3d ba c9 90 3e
       0.16305827 0.23000503 0.11874133 0.28278905
000160 13 c1 84 3e c4 69 74 3c b7 f3 e1 bb 3d 6c 14 3e
       0.25928554 0.014917795 -0.006895508 0.14494415
000170 aa c5 8e bd 6e d5 16 be 6e 1a 18 be 95 33 8b 3d
       -0.06971295 -0.14729854 -0.14853832 0.06796948
000180 fa 4a 69 bd c6 a5 4b 3e b5 0a 5a 3e bb e5 1b bd
       -0.05695627 0.19887456 0.21293147 -0.038060885
000190 18 18 f9 3d b0 0c 57 bd 42 ca d1 bc 3b a8 17 3c
       0.12162799 -0.052502334 -0.02560914 0.009256418
0001a0 d6 1e 06 be 38 92 0c 3d 37 8f c0 3d 79 c2 5f be
       -0.130977 0.034319133 0.09402316 -0.21851529
0001b0 86 4c 8f 3e 9d f6 5e bd 4d b3 93 be bf 9d 6e 3e
       0.2798807 -0.054434408 -0.28847733 0.23302363
0001c0 e6 f8 50 3e 6e ab 9f 3e 42 31 83 bd 8e 01 b4 bc
       0.20407447 0.31185478 -0.064058796 -0.021973398
0001d0 f7 11 8e be c7 85 a2 bd 57 99 12 be f9 f4 95 3e
       -0.2774808 -0.07935672 -0.14316307 0.29288462
0001e0 7b 0e 2c 3e 08 bb ca bd 77 cc b9 3c 0f 1a 0a be
       0.16802399 -0.09898955 0.022680504 -0.13486503
0001f0 e2 f6 d7 bd f9 54 bb bd 17 8c d8 bd 4c 99 01 be
       -0.10545136 -0.091470666 -0.10573595 -0.12656134
000200 39 e5 08 be f2 3d eb bd f9 bd f8 bd 5d 94 02 3d
       -0.13368692 -0.114864245 -0.121456094 0.03187977
000210 ab a9 a1 3d 73 73 f7 3d 44 b8 d9 bd 65 50 a9 bd
       0.0789369 0.12082567 -0.10630849 -0.08267287
000220 95 e6 7e bd ee 8f ec 3d fe 18 6c 3e 33 77 c3 bd
       -0.06223162 0.1155089 0.23056409 -0.0954422
000230 be 66 81 bc cb d8 eb 3c 37 ba 2f 3e 7e da 6b 3d
       -0.015796062 0.028789898 0.17160879 0.057581417
000240 80 3b eb bd 8f ee 7a 3d 96 5c d5 bd 19 7b f8 bd
       -0.11485958 0.061262663 -0.1041805 -0.12132854
000250 04 ca 08 be 16 af da bd c5 2c 7c 3e 7d 6a 88 3e
       -0.13358313 -0.10677926 0.24626453 0.26643744
000260 95 54 85 be 4e 04 f6 bd 8c 02 31 3c 24 71 f5 3c
       -0.26041093 -0.1201254 0.01080383 0.029961176
000270 b8 4a b9 3d d1 10 b6 bd 8d 05 22 3c 99 4c 01 bd
       0.090474546 -0.08889926 0.009889019 -0.03156719
000280 4b 95 b4 bc c4 a8 38 3c de 15 28 3e 07 07 b9 3a
       -0.022043845 0.011270706 0.16414592 0.0014116474
000290 eb 16 c4 bd 35 34 1b 3e 75 be 38 3e 07 6d d5 bd
       -0.09574684 0.15156634 0.18041404 -0.10421186
0002a0 c0 28 33 3e a7 af 21 bc 2a eb 8e 3d 80 03 28 3d
       0.17496014 -0.009868539 0.06978448 0.041018963
0002b0 d0 35 57 3e e6 23 b5 bd 2c 53 79 3c 3c b1 86 bd
       0.21016622 -0.08844738 0.015217584 -0.065767735
0002c0 b6 85 63 be 1e 5a 87 3d dd 3a dd 3d 19 6b c8 bd
       -0.22218975 0.06608985 0.10802243 -0.09786052
0002d0 41 bb 27 3d f2 18 cb 3d d9 7d e5 bd 4a d7 14 3e
       0.040950064 0.09916867 -0.11205644 0.14535251
0002e0 dc d7 97 be de 62 8a 3e 2f 6c 38 3d 1e 93 09 3e
       -0.29656875 0.27028555 0.045025047 0.13435027
0002f0 bd f9 1d be cc 3f 6f be 78 ab a9 3c fa f2 20 be
       -0.15427299 -0.2336418 0.020711645 -0.15717688
000300 76 4e 0a bd d5 85 bb 3d 3e 1e 05 3e ba 39 0a 3e
       -0.033766232 0.09156386 0.12999818 0.13498583
000310 9c d0 00 be 66 b4 d9 bd e8 18 27 be 51 7e 20 3c
       -0.12579578 -0.106301114 -0.16318095 0.009795741
000320 1d 4b 88 bd 1e b8 b6 bd e3 d9 8a bd 33 7f 2b be
       -0.06654952 -0.08921836 -0.0677984 -0.16747741
000330 35 f0 18 3d 29 8f 3c 3d e2 85 a4 3d 03 ee 7a bc
       0.037338454 0.046034966 0.080333486 -0.0153155355
000340 77 fe d0 bd 80 8e 2b be b6 97 1d 3d 7c 72 60 3d
       -0.10204785 -0.16753578 0.03847476 0.05479668
000350 ac ff cc 3d a6 ce c0 bd 71 d8 6a bc 4f 78 16 3e
       0.10009703 -0.09414415 -0.01433383 0.14694332
000360 90 92 de 3c 00 b2 a0 bd 03 1b b2 bd 13 33 0f be
       0.027169496 -0.07846451 -0.08696558 -0.13984327
000370 61 18 75 3d bb 4c 76 3d 7f be 10 3d 99 68 ea bd
       0.059837703 0.06013177 0.03533792 -0.11445732
000380 79 54 64 be f2 5f c7 bd a9 d1 91 be 6b 89 f1 bc
       -0.22297849 -0.09735097 -0.2848027 -0.029484471
000390 3c 2b 85 3d 55 8d 2c 3d 3e e2 5e 3e f0 5a 18 bd
       0.06502387 0.042126972 0.21765992 -0.0371961
0003a0 5b 17 29 3e 96 60 93 bd 87 37 8a 3e 84 52 83 3c
       0.16512816 -0.07196157 0.2699549 0.016030557
0003b0 2a 1f 59 be d3 a2 3c 3e 12 1c 17 be 6f 13 70 3e
       -0.21203294 0.18421488 -0.14756802 0.23444913
0003c0 3c 85 2c 3d 12 86 9a bd ca e6 2c 3d 5d c4 37 3d
       0.04211925 -0.07545103 0.042212285 0.044865
0003d0 f2 34 b5 bd 38 1f df 3d 7a d1 10 be c6 d0 e7 3d
       -0.08847989 0.108946264 -0.14142409 0.11319117
0003e0 1c c3 bf bc dc 63 f1 bd 2e c8 94 bd 6e ab d2 bd
       -0.023408465 -0.11786625 -0.07264744 -0.10286604
0003f0 ee 88 f0 3d b9 63 62 3d fb 1c cb bd 5f 18 0e be
       0.11744867 0.055270884 -0.09917637 -0.13876484

conv1.lin_l.bias f4 [32]
000000 8f be d9 3d e0 8b 77 be fd be 80 3e 10 b6 ed bd
       0.10632049 -0.24174452 0.25145712 -0.11606991
000010 ef ff df 3d 05 cc 41 be 1e 4e b4 3d 2d cc 60 be
       0.10937487 -0.18925484 0.08803962 -0.21952887
000020 c8 9c 71 3c 4c 7e 14 be af 5a 8e bd 9d 58 05 bc
       0.014746852 -0.14501303 -0.0695089 -0.008138803
000030 0e fb 3c 3e 64 ef ff 3d 72 1a 7c 3d e0 30 ee 3c
       0.18455145 0.12496832 0.061548658 0.02907604
000040 3e fd 60 3e ba 58 5b 3d a6 bb c8 bd 2e 3f 78 3d
       0.21971604 0.053551413 -0.09801416 0.060607128
000050 1c f7 79 bd 42 d1 5f be f3 49 c9 bc dc 01 8f 3a
       -0.061026677 -0.2185717 -0.024571395 0.0010910588
000060 15 f5 4c 3e 56 5d 74 3d 88 b2 fa 3d 3e 6a ad bc
       0.20015366 0.059659325 0.122410834 -0.021168824
000070 99 92 d9 bd c8 39 0a 3e 82 e3 30 bd 7a 67 0d be
       -0.106236644 0.13498604 -0.04318572 -0.13809004

conv1.lin_r.weight f4 [32, 30]
000000 d8 a9 72 be b5 9d 49 be b7 bb 39 3e f7 48 02 be
       -0.23697603 -0.19689067 0.18138014 -0.12723146
000010 26 68 8f 3e 20 cb 9d bb 50 44 a9 be c5 6f 1d 3d
       0.28009146 -0.004815474 -0.3305993 0.03843667
000020 f5 5c 13 bd 08 db 59 be 99 af 70 be 0b a9 16 3e
       -0.035977323 -0.2127496 -0.23504485 0.14712922
000030 6b 9f 77 bd 39 b2 c6 3d aa 93 85 bd 59 53 52 3d
       -0.060454767 0.09701962 -0.06522305 0.051349018
000040 06 aa 5a 3d 90 c7 3f be 6b 54 d2 bd 99 1a c7 bd
       0.053384803 -0.18728471 -0.10270008 -0.0972187
000050 90 95 c8 3e 95 fb 75 3e 8b fc 2c 3e 62 e2 4f 3e
       0.39176607 0.24021752 0.16893212 0.20301202
000060 1a 11 8f be e9 10 2a 3d a8 26 d2 3d 5a 4f 2d 3e
       -0.27942735 0.041520033 0.10261279 0.16924801
000070 d7 36 58 3e eb 7c 2a 3e e3 1b 84 bd 3a 9e f1 3d
       0.2111467 0.16649215 -0.064506315 0.117977574
000080 d1 92 25 bd 08 44 0f 3d 4d ac 1c 3e 42 e0 ca bd
       -0.04042322 0.03497699 0.15300103 -0.09906055
000090 f5 fe 5d 3e e6 81 e1 3c 42 9e b1 3d 21 f2 1d be
       0.2167929 0.02752776 0.086727634 -0.15424396
0000a0 8b 00 96 3e 3f c6 3a be b3 bf ef 3d 31 d7 90 be
       0.2929729 -0.18239687 0.117064856 -0.28289178
0000b0 88 9e 08 bd 22 90 d2 bd 05 f7 e8 3d 00 1d 05 3e
       -0.033354312 -0.102813974 0.1137524 0.12999344
0000c0 65 51 c7 3c e9 2b 94 3d fc 0d 0c bd 6d 1b 3c 3d
       0.024330804 0.07234938 -0.034193024 0.045924593
0000d0 90 06 e5 3d d7 8e 2d bc 0b 6b b1 bc f5 db 52 be
       0.11182892 -0.010593138 -0.021657487 -0.2059172
0000e0 8e 8b da 3d ce a7 29 be a9 fd 15 be 9b 46 99 bd
       0.10671149 -0.16567919 -0.14647545 -0.0748417
0000f0 a9 7c a9 be 5c 08 22 3e 45 e2 c3 bd c4 9e 20 bd
       -0.3310292 0.15823501 -0.09564642 -0.03921391
000100 24 b9 97 be db 98 6e be 76 44 29 3e ed ad a1 be
       -0.2963344 -0.23300497 0.16530022 -0.31578007
000110 9f db 1d be c6 ec 7d 3e ff e7 5b 3d 80 d1 26 bd
       -0.1541581 0.24797353 0.053688046 -0.04072714
000120 35 d5 c6 3d d2 f0 29 3e af 5d 6e 3e db 65 b5 bd
       0.09708635 0.16595772 0.23277925 -0.08857318
000130 e7 34 76 3e bb d0 89 bd 44 f1 0a 3e f8 58 01 be
       0.24043618 -0.06729265 0.13568598 -0.12631595
000140 00 c4 2b 3e f4 12 d3 bc 72 88 c9 be 5a b6 89 bd
       0.16773987 -0.025765873 -0.39361912 -0.06724234
000150 f0 fb 34 3d de 14 30 3e 1a 7c 81 3e 67 5f 80 3e
       0.04418558 0.1719546 0.25289994 0.25072786
000160 1c 99 28 3e 07 16 ea bd 63 c5 0b bc 88 b0 88 bc
       0.16464657 -0.11429983 -0.008530947 -0.01668574
000170 58 cd 8e 3e 5a 3f d7 bd 30 0b fa 3c d7 67 41 bb
       0.2789104 -0.1051013 0.030522913 -0.0029511356
000180 6e 9a fb 3a 50 2a 24 be ce 1e 99 3d fb 01 c0 bd
       0.0019195804 -0.16031766 0.07476579 -0.09375378
000190 dd 9f 06 be ea 1f 8b 3e b8 41 91 be 56 b7 fa bd
       -0.1314692 0.27172786 -0.28370452 -0.12242
0001a0 33 42 2b be 33 28 44 be 01 d1 40 be 40 c6 a6 bd
       -0.16724472 -0.1915596 -0.18829729 -0.08143282
0001b0 a1 59 cd bd 6b 07 5e be d7 78 76 3d 53 f5 2e 3e
       -0.10026861 -0.21682517 0.060173836 0.17085771
0001c0 66 78 2e bc 88 57 41 be fc f6 9f bd 0b 9c 37 3e
       -0.010648822 -0.18881047 -0.078107804 0.1793062
0001d0 cf 97 72 3e 7d 01 e0 3d 87 94 3e 3d a8 e3 38 3e
       0.23690723 0.10937784 0.046528365 0.18055594
0001e0 74 4f b1 bd c3 fb 02 be 72 9c 0b bd dc 36 78 be
       -0.086577326 -0.12791352 -0.034084745 -0.24239677
0001f0 e4 bd a3 3e cc bf 81 bd 7f 05 97 be f1 ee cd bc
       0.31980813 -0.063354105 -0.2949638 -0.02513835
000200 c8 7e 6f bd 08 de f3 bd 15 13 a8 3c 4e bc 62 3e
       -0.058470517 -0.119075835 0.020516912 0.22142145
000210 f7 e8 05 be f8 64 7c 3d 00 cd c7 bd 0f 40 eb 3c
       -0.1307715 0.06161973 -0.097558975 0.028717069
000220 58 64 9e 3d 27 9a 8d be 1b 4f 41 bd 5e 56 0a 3d
       0.07733983 -0.2765667 -0.04719458 0.033773772
000230 7c 30 49 3e ea 8c 94 3e fe 14 66 3e cf 29 84 3e
       0.19647402 0.2901376 0.22468945 0.25813147
000240 d7 49 92 be bd 54 d7 3d 11 79 2b 3d a0 da fc bd
       -0.2857196 0.105142094 0.041863505 -0.12346387
000250 9c 2b 13 3d 6e 3b 85 3e 17 08 34 3e af 81 9e 3d
       0.03593026 0.26021904 0.17581211 0.07739579
000260 d9 ec a2 3d 8d ae 2e 3d c5 38 01 3c b9 1a 29 bb
       0.07955331 0.042646933 0.00788707 -0.0025803281
000270 3d 95 d6 bd 86 4b 74 bc 0f 50 03 3d 3a d3 48 be
       -0.10477684 -0.014910584 0.03205877 -0.19611827
000280 b6 03 bb 3d 65 e3 59 be f9 09 e8 3d 82 b6 7c bd
       0.09131567 -0.2127815 0.11330027 -0.06169749
000290 64 6c ce 3d ff b3 96 bd 13 89 13 bd 89 23 f9 bd
       0.100792676 -0.0735855 -0.036019396 -0.12164981
0002a0 2b a4 09 bd 31 40 98 bd b6 f6 e6 bb 5b 8e 77 bd
       -0.03360383 -0.074341185 -0.007048453 -0.060438495
0002b0 44 7f 68 3e 35 c6 ae 3c c8 56 0d be 8e ca 91 3d
       0.22704798 0.021334747 -0.13802636 0.07118712
0002c0 00 57 d4 bd e6 de d5 bd b7 7f 3e 3d cf 95 35 3d
       -0.103681564 -0.10442905 0.046508517 0.04433232
0002d0 e1 bf 87 bd ac c1 34 be cd f5 97 3b b8 1b f3 bc
       -0.06628395 -0.17652005 0.004637456 -0.029676303
0002e0 b1 b9 71 be 67 4c 5e 3e 13 76 6d 3e 88 c9 fc 3d
       -0.23605992 0.21708833 0.23189573 0.123431265
0002f0 17 c0 39 3e 24 ad ac bd af e8 25 3e 37 9d 4e bd
       0.18139683 -0.084314615 0.16202043 -0.0504429
000300 39 2f b5 bd 16 f6 0b 3e a1 df 31 be 52 11 3f bd
       -0.08846898 0.13668093 -0.17370464 -0.046647377
000310 41 65 7b bd bb c4 4e be 55 35 15 be 74 ef 94 3e
       -0.06137586 -0.20192234 -0.14571126 0.29088938
000320 ef 0d 2e be c4 e2 10 be 89 99 4d be 82 a4 1b bd
       -0.16997503 -0.14149004 -0.200781 -0.037998684
000330 d6 6f c9 3d b8 b1 39 be 43 d2 78 bd 2f b9 fe 3c
       0.09835784 -0.181342 -0.060747396 0.031094162
000340 14 53 0b be 60 0e de bd 69 c0 e4 3d 4b 61 c8 3b
       -0.1360591 -0.108425856 0.11169512 0.006115114
000350 c8 e5 97 bb 03 60 af bd ce b3 59 be 4b 4e 81 3e
       -0.0046355464 -0.08563235 -0.21259996 0.25255045
000360 14 ee 3a 3e f2 da 32 3e 96 4b 43 bd fd 89 09 3d
       0.18254882 0.17466334 -0.047679506 0.03357886
000370 f0 cf 8f 3d 2f 2f 5c be 1b 09 62 bd bd 46 4c be
       0.07022083 -0.21502374 -0.055184465 -0.1994886
000380 7f d7 ae bd cb 9f b1 bc fb 7a 17 3e 41 98 52 bd
       -0.08537196 -0.02168264 0.14793007 -0.051414732
000390 dd a8 7b bd c5 5a f8 bd 77 cb a0 bd 94 85 5e be
       -0.061440337 -0.12126688 -0.07851308 -0.21730644
0003a0 1d 36 d2 3d 1c be a5 ba 35 71 90 3c 8c 59 9a bd
       0.102642275 -0.0012645158 0.017632106 -0.07536611
0003b0 f9 d2 cc bd d9 19 33 be 5e 75 4c be 5e e6 b9 3d
       -0.10001177 -0.17490329 -0.19966647 0.09077142
0003c0 b0 7b 38 3d 1d 97 4b be 0c 6b 85 3d ca 7b 19 3d
       0.045039833 -0.19881864 0.06514558 0.03747157
0003d0 9c c1 90 3e af 47 e6 3d a8 92 a1 be c6 df 2e 3c
       0.28272712 0.11244141 -0.31557202 0.010673469
0003e0 15 7d b2 3d 9e 52 20 be 0d 1b 96 be 96 08 81 3d
       0.08715264 -0.15656516 -0.29317513 0.06300466
0003f0 5f 4b 27 be 8d c8 e5 bd 52 43 37 be 42 3d f8 3d
       -0.16337346 -0.11219893 -0.17896774 0.12121059

conv2.lin_l.weight f4 [2, 32]
000000 00 9e 33 3e 26 3b c4 3d 05 0b 84 3d de ea 4a 3e
       0.17540741 0.09581594 0.06447414 0.19816157
000010 fb 70 a3 3c 1d 51 59 3e bf 7d bb 3b 00 47 40 3d
       0.019951334 0.21222349 0.005721777 0.04694271
000020 f8 38 f1 3d a8 2b 12 3a 4e e5 23 3d d2 ed 40 3e
       0.11778444 0.00055759633 0.040013604 0.18840721
000030 e6 62 3b 3e f7 41 64 3d 88 38 28 3e 51 f0 a0 bd
       0.18299446 0.05572697 0.16427815 -0.07858337
000040 6d c9 4d 3e 09 ca 4d 3e f2 64 bd bd 94 c8 39 bd
       0.20096369 0.20096602 -0.092477694 -0.0453573
000050 6b e7 6c 3e ff 69 09 3e 77 f7 35 bd 5f d6 08 3d
       0.23135154 0.1341934 -0.044425454 0.033407565
000060 30 66 47 3e ed 64 3e 3d 52 11 79 3e 21 ec f4 bd
       0.19472575 0.04648297 0.24323013 -0.119591005
000070 15 bb c0 bc a0 1c f0 bd 0f 72 06 bd 24 ff dc 3d
       -0.023526708 -0.1172421 -0.03282362 0.10790852
000080 92 bb 3e be 6a 4c b8 bd 7e 30 43 bd f8 b3 f7 3b
       -0.1862624 -0.0899895 -0.047653668 0.0075592957
000090 1c 67 b8 3d 83 1a 18 bd 22 36 43 be de 08 5c be
       0.090040416 -0.03713466 -0.19063619 -0.21487758
0000a0 be b9 91 bd f7 9a 9c bd 64 c7 3f be 96 f3 ed bd
       -0.07115506 -0.07646745 -0.18728405 -0.11618726
0000b0 c6 83 d1 bd e9 92 a5 3d 79 fd a7 bb b9 e3 06 bc
       -0.10230212 0.080846615 -0.005126652 -0.008233004
0000c0 bb 85 3a be 7a 55 94 bc 2c 0e 2e bd ed 96 51 be
       -0.18215077 -0.018107165 -0.042493984 -0.2046773
0000d0 3d 4d 77 be 7d e1 a0 bc 66 c4 d8 bd 32 a3 85 be
       -0.24150558 -0.019638771 -0.10584335 -0.2610107
0000e0 cf 2b 76 be 0c f1 17 bd 67 fe b8 3b 5b eb 2a be
       -0.24040149 -0.037095115 0.0056455615 -0.16691343
0000f0 9d 99 09 3e 7b 92 34 be 03 92 b3 3c 3e fa 1f bd
       0.13437505 -0.17634003 0.02192021 -0.03905701

conv2.lin_l.bias f4 [2]
000000 f7 ab 4d 3e ee 8d 0e bd
       0.2008513 -0.034803323

conv2.lin_r.weight f4 [2, 32]
000000 9d c2 4e be 35 86 95 3b b2 fc 77 3e 4f 41 bd bd
       -0.20191427 0.004563118 0.2421749 -0.09240972
000010 6d 94 6b be 5a d4 1b bd e0 e1 00 be c7 c3 ae bd
       -0.23005839 -0.03804431 -0.12586164 -0.08533435
000020 8e ed 84 be 23 9e 9c be db f0 a5 bc fc 72 cc 3d
       -0.2596249 -0.305894 -0.02025645 0.09982869
000030 e2 64 8b 3e b0 0c 05 3e 4e f9 67 3e 35 56 8e be
       0.27225405 0.12993121 0.22653696 -0.27800146
000040 87 37 b8 3e 8c 72 62 be ca 9d 97 bd a4 80 31 be
       0.35979864 -0.22114009 -0.07403143 -0.17334229
000050 ee 5a f9 bd 52 24 0a 3e d8 e1 8d 3e 57 3f 36 3e
       -0.121755466 0.13490418 0.27711368 0.177976
000060 74 c0 45 3e 1f 81 24 3e 5d 48 09 3d 12 4e 10 3e
       0.19311696 0.16064881 0.033516277 0.14092281
000070 75 57 45 3d 2c 7e c8 3c c1 0b 87 bd bc e8 86 be
       0.04817911 0.024474226 -0.06594039 -0.26349437
000080 24 ff 94 3d e7 65 34 be be d2 25 be 24 dd 02 3e
       0.07275227 -0.17616998 -0.16193673 0.12779671
000090 f1 74 3c 3d 5a 39 c3 bc 6f 9b 0d be 00 51 63 bd
       0.04600996 -0.023831058 -0.13828824 -0.05549717
0000a0 a0 b7 bb 3c f5 78 b0 3e 2c 54 8d 3d 98 ba 90 bb
       0.022914708 0.34467283 0.0690082 -0.004416775
0000b0 e9 f7 38 be 99 e0 b4 be 3c 31 8c be dd 48 93 3e
       -0.1806332 -0.35327604 -0.27381313 0.28766528
0000c0 ca 24 9c be 99 9a ad 3d 3d d0 90 3b 15 0a 17 bd
       -0.30496818 0.08476753 0.004419355 -0.03687485
0000d0 7a cf 37 3e 73 2c 3c 3d 5e be 1c 3d ea eb 28 bd
       0.1795024 0.045940828 0.038267486 -0.04124061
0000e0 94 7c 99 be 18 d9 54 be ca 5f 27 3b 59 bb dc bd
       -0.29977858 -0.2078594 0.0025539272 -0.10777921
0000f0 5c 93 a2 bd 98 dd a9 be 1a 6f ed 3a 71 dd df 3b
       -0.07938263 -0.33176875 0.0018114776 0.006831818
